trained_model_4bit_H2_100_100.pt (torch, 725476 bytes, 12 tensors)

fcs.0.weight f4 [100, 784]
000000 00 21 04 3d 00 21 04 3d 00 21 04 3d 00 21 04 3d
       0.032258034 0.032258034 0.032258034 0.032258034
000010 10 21 04 bd 10 21 04 bd 00 21 04 3d 00 21 04 3d
       -0.032258093 -0.032258093 0.032258034 0.032258034
000020 00 21 04 3d 10 21 04 bd 00 21 04 3d 00 21 04 3d
       0.032258034 -0.032258093 0.032258034 0.032258034
000030 10 21 04 bd 10 21 04 bd 00 21 04 3d 10 21 04 bd
       -0.032258093 -0.032258093 0.032258034 -0.032258093
000040 10 21 04 bd 10 21 04 bd 10 21 04 bd 00 21 04 3d
       -0.032258093 -0.032258093 -0.032258093 0.032258034
000050 00 21 04 3d 10 21 04 bd 10 21 04 bd 10 21 04 bd
       0.032258034 -0.032258093 -0.032258093 -0.032258093
000060 00 21 04 3d 10 21 04 bd 10 21 04 bd 10 21 04 bd
       0.032258034 -0.032258093 -0.032258093 -0.032258093
000070 10 21 04 bd 10 21 04 bd 00 21 04 3d 10 21 04 bd
       -0.032258093 -0.032258093 0.032258034 -0.032258093
000080 10 21 04 bd 10 21 04 bd 00 21 04 3d 00 21 04 3d
       -0.032258093 -0.032258093 0.032258034 0.032258034
000090 00 21 04 3d 00 21 04 3d 00 21 04 3d 00 21 04 3d
       0.032258034 0.032258034 0.032258034 0.032258034
0000a0 10 21 04 bd 10 21 04 bd 00 21 04 3d 00 21 04 3d
       -0.032258093 -0.032258093 0.032258034 0.032258034
0000b0 00 21 04 3d 00 21 04 3d 80 31 c6 3d 00 21 04 3d
       0.032258034 0.032258034 0.0967741 0.032258034
0000c0 00 21 04 3d 00 21 04 3d 00 21 04 3d 10 21 04 bd
       0.032258034 0.032258034 0.032258034 -0.032258093
0000d0 00 21 04 3d 00 21 04 3d 00 21 04 3d 00 21 04 3d
       0.032258034 0.032258034 0.032258034 0.032258034
0000e0 00 21 04 3d 10 21 04 bd 00 21 04 3d 10 21 04 bd
       0.032258034 -0.032258093 0.032258034 -0.032258093
0000f0 00 21 04 3d 00 21 04 3d 80 31 c6 3d 80 31 c6 3d
       0.032258034 0.032258034 0.0967741 0.0967741
000100 48 29 25 3e d0 39 67 3e d0 39 67 3e d0 39 67 3e
       0.16129029 0.22580647 0.22580647 0.22580647
000110 48 29 25 3e 80 31 c6 3d 68 ad b5 3e 68 ad b5 3e
       0.16129029 0.0967741 0.3548386 0.3548386
000120 ac b5 d6 3e 68 ad b5 3e 28 a5 94 3e 68 ad b5 3e
       0.4193548 0.3548386 0.29032254 0.3548386
000130 28 a5 94 3e 48 29 25 3e 80 31 c6 3d 80 31 c6 3d
       0.29032254 0.16129029 0.0967741 0.0967741
000140 80 31 c6 3d 00 21 04 3d 00 21 04 3d 10 21 04 bd
       0.0967741 0.032258034 0.032258034 -0.032258093
000150 00 21 04 3d 10 21 04 bd 10 21 04 bd 10 21 04 bd
       0.032258034 -0.032258093 -0.032258093 -0.032258093
000160 00 21 04 3d 80 31 c6 3d d0 39 67 3e 28 a5 94 3e
       0.032258034 0.0967741 0.22580647 0.29032254
000170 68 ad b5 3e f0 bd f7 3e f0 bd f7 3e 18 63 0c 3f
       0.3548386 0.48387098 0.48387098 0.54838705
000180 68 ad b5 3e 28 a5 94 3e f0 bd f7 3e 18 63 0c 3f
       0.3548386 0.29032254 0.48387098 0.54838705
000190 18 63 0c 3f ac b5 d6 3e f0 bd f7 3e 18 63 0c 3f
       0.54838705 0.4193548 0.48387098 0.54838705
0001a0 38 e7 1c 3f f0 bd f7 3e ac b5 d6 3e 28 a5 94 3e
       0.6129031 0.48387098 0.4193548 0.29032254
0001b0 28 a5 94 3e 48 29 25 3e 80 31 c6 3d 10 21 04 bd
       0.29032254 0.16129029 0.0967741 -0.032258093
0001c0 10 21 04 bd 00 21 04 3d 10 21 04 bd 80 31 c6 3d
       -0.032258093 0.032258034 -0.032258093 0.0967741
0001d0 80 31 c6 3d 48 29 25 3e 28 a5 94 3e 68 ad b5 3e
       0.0967741 0.16129029 0.29032254 0.3548386
0001e0 ac b5 d6 3e 18 63 0c 3f 5a 6b 2d 3f 7c ef 3d 3f
       0.4193548 0.54838705 0.6774193 0.7419355
0001f0 38 e7 1c 3f 18 63 0c 3f 18 63 0c 3f 38 e7 1c 3f
       0.6129031 0.54838705 0.54838705 0.6129031
000200 7c ef 3d 3f 5a 6b 2d 3f 38 e7 1c 3f bc f7 5e 3f
       0.7419355 0.6774193 0.6129031 0.8709676
000210 bc f7 5e 3f 7c ef 3d 3f 7c ef 3d 3f 5a 6b 2d 3f
       0.8709676 0.7419355 0.7419355 0.6774193
000220 18 63 0c 3f 68 ad b5 3e 80 31 c6 3d 00 21 04 3d
       0.54838705 0.3548386 0.0967741 0.032258034
000230 00 21 04 3d 00 21 04 3d 10 21 04 bd 80 31 c6 3d
       0.032258034 0.032258034 -0.032258093 0.0967741
000240 80 31 c6 3d 48 29 25 3e d0 39 67 3e 28 a5 94 3e
       0.0967741 0.16129029 0.22580647 0.29032254
000250 d0 39 67 3e 5a 6b 2d 3f de 7b 6f 3f 00 00 80 3f
       0.22580647 0.6774193 0.9354838 1.0
000260 00 00 80 3f de 7b 6f 3f 7c ef 3d 3f 18 63 0c 3f
       1.0 0.9354838 0.7419355 0.54838705
000270 7c ef 3d 3f 9c 73 4e 3f bc f7 5e 3f bc f7 5e 3f
       0.7419355 0.80645156 0.8709676 0.8709676
000280 9c 73 4e 3f de 7b 6f 3f 7c ef 3d 3f 38 e7 1c 3f
       0.80645156 0.9354838 0.7419355 0.6129031
000290 f0 bd f7 3e 68 ad b5 3e 80 31 c6 3d 00 21 04 3d
       0.48387098 0.3548386 0.0967741 0.032258034
0002a0 00 21 04 3d 00 21 04 3d 00 21 04 3d 00 21 04 3d
       0.032258034 0.032258034 0.032258034 0.032258034
0002b0 80 31 c6 3d 48 29 25 3e d0 39 67 3e 48 29 25 3e
       0.0967741 0.16129029 0.22580647 0.16129029
0002c0 48 29 25 3e 68 ad b5 3e 18 63 0c 3f 5a 6b 2d 3f
       0.16129029 0.3548386 0.54838705 0.6774193
0002d0 7c ef 3d 3f ac b5 d6 3e 68 ad b5 3e 68 ad b5 3e
       0.7419355 0.4193548 0.3548386 0.3548386
0002e0 68 ad b5 3e d0 39 67 3e d0 39 67 3e 28 a5 94 3e
       0.3548386 0.22580647 0.22580647 0.29032254
0002f0 f0 bd f7 3e 38 e7 1c 3f f0 bd f7 3e 28 a5 94 3e
       0.48387098 0.6129031 0.48387098 0.29032254
000300 28 a5 94 3e 48 29 25 3e 80 31 c6 3d 00 21 04 3d
       0.29032254 0.16129029 0.0967741 0.032258034
000310 00 21 04 3d 00 21 04 3d 00 21 04 3d 00 21 04 3d
       0.032258034 0.032258034 0.032258034 0.032258034
000320 00 21 04 3d 10 21 04 bd 10 21 04 bd 4c 29 25 be
       0.032258034 -0.032258093 -0.032258093 -0.16129035
000330 d0 39 67 be ae b5 d6 be 19 63 0c bf d0 39 67 be
       -0.22580647 -0.41935486 -0.5483871 -0.22580647
000340 d0 39 67 be f0 bd f7 be 3a e7 1c bf 5b 6b 2d bf
       -0.22580647 -0.48387098 -0.61290324 -0.67741936
000350 3a e7 1c bf 7c ef 3d bf 7c ef 3d bf ae b5 d6 be
       -0.61290324 -0.7419355 -0.7419355 -0.41935486
000360 2a a5 94 be 90 31 c6 bd 00 21 04 3d 10 21 04 bd
       -0.2903226 -0.09677422 0.032258034 -0.032258093
000370 00 21 04 3d 00 21 04 3d 80 31 c6 3d 00 21 04 3d
       0.032258034 0.032258034 0.0967741 0.032258034
000380 00 21 04 3d 00 21 04 3d 00 21 04 3d 10 21 04 bd
       0.032258034 0.032258034 0.032258034 -0.032258093
000390 4c 29 25 be 4c 29 25 be 2a a5 94 be f0 bd f7 be
       -0.16129035 -0.16129035 -0.2903226 -0.48387098
0003a0 7c ef 3d bf df 7b 6f bf 00 00 80 bf be f7 5e bf
       -0.7419355 -0.9354839 -1.0 -0.87096775
0003b0 7c ef 3d bf be f7 5e bf be f7 5e bf 00 00 80 bf
       -0.7419355 -0.87096775 -0.87096775 -1.0
0003c0 00 00 80 bf 00 00 80 bf 00 00 80 bf 00 00 80 bf
       -1.0 -1.0 -1.0 -1.0
0003d0 df 7b 6f bf 7c ef 3d bf f0 bd f7 be 6c ad b5 be
       -0.9354839 -0.7419355 -0.48387098 -0.35483873
0003e0 4c 29 25 be 10 21 04 bd 00 21 04 3d 00 21 04 3d
       -0.16129035 -0.032258093 0.032258034 0.032258034
0003f0 10 21 04 bd 10 21 04 bd 10 21 04 bd 90 31 c6 bd
       -0.032258093 -0.032258093 -0.032258093 -0.09677422

fcs.0.bias f4 [100]
000000 30 5b 5e bf e1 8f 70 bf 74 f5 7e bf 30 3b 8f 3e
       -0.8685789 -0.9396954 -0.9959328 0.27974844
000010 4d 1e 7b bf 09 bc 7b 3f 4b 0f be be 4f 01 b8 bd
       -0.9809311 0.98333794 -0.37121043 -0.089846246
000020 0b 6b 7e 3f f7 c4 e0 3e 8c 06 7e 3f 0d 34 7a bf
       0.99382085 0.43900272 0.9922874 -0.97735673
000030 14 b0 7b 3f 6d 75 7a 3f a6 ec 63 bf ed 0e 6c 3f
       0.9831555 0.9783543 -0.8903297 0.92210275
000040 e8 0a 7c 3f 1c 51 68 3f eb a0 5f bf ad a3 7b 3f
       0.9845414 0.90748763 -0.87354916 0.98296624
000050 ac 33 5e bf 2f 97 5b bf 69 21 4d bd a3 df 79 3f
       -0.86797595 -0.8577756 -0.05008069 0.9760687
000060 25 7b 72 bf ab 38 2f 3f 83 ea 7d 3f 03 5b df be
       -0.94719154 0.68445843 0.9918596 -0.43624124
000070 f5 28 47 be 02 35 79 bf 91 81 aa 3e ba 60 7b 3f
       -0.19449218 -0.9734651 0.33301976 0.9819447
000080 60 2c 6d bf a5 ce 76 bf 21 dd 6f 3d 14 8c 73 bf
       -0.92645836 -0.96409065 0.058560494 -0.9513562
000090 d1 12 dd be 06 4d 02 3f 81 bd 67 bf 7c 86 74 bf
       -0.43178418 0.5089878 -0.90523535 -0.95517707
0000a0 df ec e5 3e d3 00 79 3f df 6a 52 bf 1d 38 77 bf
       0.4490728 0.9726688 -0.8219432 -0.9657
0000b0 68 0b 67 bf b9 8a 11 bf bd 4b 89 3e 02 cd ac 3e
       -0.9025178 -0.568523 0.26815596 0.3375016
0000c0 f9 3f 7f 3f ac 01 78 bf 30 9b 71 bf c9 4d 34 bf
       0.9970699 -0.9687755 -0.9437742 -0.7043119
0000d0 50 c0 b0 3e c3 e0 b8 be c6 c2 6c bf 45 f1 71 bf
       0.34521723 -0.3610898 -0.924847 -0.94508773
0000e0 bd 21 b4 3d 73 09 ce be d2 c4 33 bf 52 3d 08 be
       0.087954976 -0.40241584 -0.702222 -0.13304642
0000f0 01 07 7b bf ab f8 3e 3f 98 92 70 bf c6 29 4b be
       -0.9805756 0.7459819 -0.93973684 -0.19840154
000100 db 4a 22 bf 20 f9 86 3e 89 a7 7f 3f 82 fe 7e bf
       -0.6339547 0.26361942 0.99865013 -0.996071
000110 96 21 f9 bd 40 2a 6a bf 78 48 6a bf 69 4b 27 bf
       -0.12164609 -0.9147072 -0.9151683 -0.6534944
000120 1f eb 79 3f 2f 1c 5a 3f 98 42 7f 3f 03 0c e2 3e
       0.9762439 0.85199255 0.9971099 0.4414979
000130 24 5e 39 3e fe 94 7e 3f c2 6b 0b 3e 74 75 7e bf
       0.18102318 0.99446094 0.13615325 -0.9939797
000140 9d d7 4c bf 7d 7d 7d 3f 09 eb 7d 3f 75 98 66 bf
       -0.800165 0.99019605 0.9918676 -0.9007638
000150 a2 fc 19 3e 40 06 69 bf 80 53 78 bf 98 9d 7e bf
       0.15037778 -0.9102516 -0.9700241 -0.9945922
000160 fd d2 7a 3f 00 00 80 3f b8 d8 7d 3f 7d 7f 7c 3f
       0.9797819 1.0 0.9915881 0.9863203
000170 ad 82 7a bf 86 24 57 3f 36 88 7d 3f 68 90 2b bf
       -0.97855645 0.84040105 0.99035966 -0.6701722
000180 d3 a0 78 bf 4d 3d c4 be 20 73 7c bf b5 20 78 bf
       -0.971204 -0.3832802 -0.98613167 -0.96924907

fcs.1.weight f4 [100, 100]
000000 ae b5 d6 be 5b 6b 2d bf 10 21 04 bd de 7b 6f 3f
       -0.41935486 -0.67741936 -0.032258093 0.9354838
000010 df 7b 6f bf 9c 73 4e 3f de 7b 6f 3f de 7b 6f 3f
       -0.9354839 0.80645156 0.9354838 0.9354838
000020 68 ad b5 3e 5a 6b 2d 3f 9d 73 4e bf 68 ad b5 3e
       0.3548386 0.6774193 -0.8064516 0.3548386
000030 7c ef 3d bf 00 21 04 3d 00 21 04 3d 19 63 0c bf
       -0.7419355 0.032258034 0.032258034 -0.5483871
000040 00 00 80 3f 68 ad b5 3e 00 00 80 bf 00 00 80 bf
       1.0 0.3548386 -1.0 -1.0
000050 00 00 80 bf 9d 73 4e bf de 7b 6f 3f 38 e7 1c 3f
       -1.0 -0.8064516 0.9354838 0.6129031
000060 be f7 5e bf 00 21 04 3d be f7 5e bf 68 ad b5 3e
       -0.87096775 0.032258034 -0.87096775 0.3548386
000070 be f7 5e bf 7c ef 3d bf f0 bd f7 3e 00 00 80 bf
       -0.87096775 -0.7419355 0.48387098 -1.0
000080 be f7 5e bf 19 63 0c bf bc f7 5e 3f 00 00 80 3f
       -0.87096775 -0.5483871 0.8709676 1.0
000090 be f7 5e bf df 7b 6f bf 00 00 80 3f 00 00 80 bf
       -0.87096775 -0.9354839 1.0 -1.0
0000a0 d0 39 67 3e df 7b 6f bf 5a 6b 2d 3f 5a 6b 2d 3f
       0.22580647 -0.9354839 0.6774193 0.6774193
0000b0 de 7b 6f 3f de 7b 6f 3f ae b5 d6 be 5a 6b 2d 3f
       0.9354838 0.9354838 -0.41935486 0.6774193
0000c0 de 7b 6f 3f 00 00 80 bf 28 a5 94 3e ae b5 d6 be
       0.9354838 -1.0 0.29032254 -0.41935486
0000d0 19 63 0c bf f0 bd f7 be de 7b 6f 3f df 7b 6f bf
       -0.5483871 -0.48387098 0.9354838 -0.9354839
0000e0 00 00 80 bf 2a a5 94 be 00 00 80 bf 00 00 80 bf
       -1.0 -0.2903226 -1.0 -1.0
0000f0 00 00 80 bf 00 00 80 bf 5b 6b 2d bf 48 29 25 3e
       -1.0 -1.0 -0.67741936 0.16129029
000100 80 31 c6 3d 00 21 04 3d 18 63 0c 3f 5b 6b 2d bf
       0.0967741 0.032258034 0.54838705 -0.67741936
000110 df 7b 6f bf df 7b 6f bf de 7b 6f 3f df 7b 6f bf
       -0.9354839 -0.9354839 0.9354838 -0.9354839
000120 00 00 80 bf 00 00 80 bf d0 39 67 be 4c 29 25 be
       -1.0 -1.0 -0.22580647 -0.16129035
000130 df 7b 6f bf 6c ad b5 be 7c ef 3d bf de 7b 6f 3f
       -0.9354839 -0.35483873 -0.7419355 0.9354838
000140 2a a5 94 be 00 00 80 bf 19 63 0c bf f0 bd f7 3e
       -0.2903226 -1.0 -0.5483871 0.48387098
000150 df 7b 6f bf 00 00 80 bf de 7b 6f 3f 38 e7 1c 3f
       -0.9354839 -1.0 0.9354838 0.6129031
000160 df 7b 6f bf 5a 6b 2d 3f 00 00 80 bf 00 00 80 bf
       -0.9354839 0.6774193 -1.0 -1.0
000170 bc f7 5e 3f de 7b 6f 3f 4c 29 25 be 18 63 0c 3f
       0.8709676 0.9354838 -0.16129035 0.54838705
000180 d0 39 67 3e 2a a5 94 be 68 ad b5 3e 00 00 80 bf
       0.22580647 -0.2903226 0.3548386 -1.0
000190 7c ef 3d bf d0 39 67 be 28 a5 94 3e 19 63 0c bf
       -0.7419355 -0.22580647 0.29032254 -0.5483871
0001a0 de 7b 6f 3f 19 63 0c bf 2a a5 94 be 00 00 80 bf
       0.9354838 -0.5483871 -0.2903226 -1.0
0001b0 00 21 04 3d 00 00 80 3f f0 bd f7 3e be f7 5e bf
       0.032258034 1.0 0.48387098 -0.87096775
0001c0 be f7 5e bf 00 00 80 bf 5b 6b 2d bf 68 ad b5 3e
       -0.87096775 -1.0 -0.67741936 0.3548386
0001d0 00 00 80 bf 90 31 c6 bd 9c 73 4e 3f bc f7 5e 3f
       -1.0 -0.09677422 0.80645156 0.8709676
0001e0 d0 39 67 3e d0 39 67 be 00 00 80 bf df 7b 6f bf
       0.22580647 -0.22580647 -1.0 -0.9354839
0001f0 80 31 c6 3d 68 ad b5 3e 3a e7 1c bf 00 00 80 bf
       0.0967741 0.3548386 -0.61290324 -1.0
000200 00 00 80 3f 5b 6b 2d bf d0 39 67 3e 00 00 80 3f
       1.0 -0.67741936 0.22580647 1.0
000210 00 00 80 bf df 7b 6f bf bc f7 5e 3f 68 ad b5 3e
       -1.0 -0.9354839 0.8709676 0.3548386
000220 de 7b 6f 3f 48 29 25 3e d0 39 67 be df 7b 6f bf
       0.9354838 0.16129029 -0.22580647 -0.9354839
000230 3a e7 1c bf f0 bd f7 be 00 00 80 bf 80 31 c6 3d
       -0.61290324 -0.48387098 -1.0 0.0967741
000240 4c 29 25 be 5b 6b 2d bf 10 21 04 bd 9c 73 4e 3f
       -0.16129035 -0.67741936 -0.032258093 0.80645156
000250 df 7b 6f bf 68 ad b5 3e 00 00 80 bf 7c ef 3d bf
       -0.9354839 0.3548386 -1.0 -0.7419355
000260 f0 bd f7 3e d0 39 67 3e 68 ad b5 3e 3a e7 1c bf
       0.48387098 0.22580647 0.3548386 -0.61290324
000270 7c ef 3d 3f 10 21 04 bd 3a e7 1c bf f0 bd f7 be
       0.7419355 -0.032258093 -0.61290324 -0.48387098
000280 00 00 80 3f 00 00 80 3f bc f7 5e 3f 38 e7 1c 3f
       1.0 1.0 0.8709676 0.6129031
000290 df 7b 6f bf 2a a5 94 be 00 21 04 3d 00 00 80 3f
       -0.9354839 -0.2903226 0.032258034 1.0
0002a0 00 00 80 bf 5b 6b 2d bf 00 00 80 bf 00 00 80 3f
       -1.0 -0.67741936 -1.0 1.0
0002b0 00 00 80 3f 00 00 80 3f 48 29 25 3e 00 00 80 bf
       1.0 1.0 0.16129029 -1.0
0002c0 68 ad b5 3e 00 00 80 bf 28 a5 94 3e bc f7 5e 3f
       0.3548386 -1.0 0.29032254 0.8709676
0002d0 2a a5 94 be 68 ad b5 3e be f7 5e bf df 7b 6f bf
       -0.2903226 0.3548386 -0.87096775 -0.9354839
0002e0 f0 bd f7 be 00 00 80 bf 7c ef 3d 3f 00 00 80 3f
       -0.48387098 -1.0 0.7419355 1.0
0002f0 00 00 80 3f be f7 5e bf d0 39 67 be ae b5 d6 be
       1.0 -0.87096775 -0.22580647 -0.41935486
000300 df 7b 6f bf 00 21 04 3d 7c ef 3d bf be f7 5e bf
       -0.9354839 0.032258034 -0.7419355 -0.87096775
000310 00 00 80 bf 28 a5 94 3e 00 00 80 bf 00 00 80 3f
       -1.0 0.29032254 -1.0 1.0
000320 28 a5 94 3e 2a a5 94 be 7c ef 3d bf 5b 6b 2d bf
       0.29032254 -0.2903226 -0.7419355 -0.67741936
000330 df 7b 6f bf df 7b 6f bf df 7b 6f bf 68 ad b5 3e
       -0.9354839 -0.9354839 -0.9354839 0.3548386
000340 18 63 0c 3f 9c 73 4e 3f 00 00 80 bf f0 bd f7 3e
       0.54838705 0.80645156 -1.0 0.48387098
000350 3a e7 1c bf 2a a5 94 be df 7b 6f bf d0 39 67 be
       -0.61290324 -0.2903226 -0.9354839 -0.22580647
000360 00 00 80 3f 10 21 04 bd de 7b 6f 3f 4c 29 25 be
       1.0 -0.032258093 0.9354838 -0.16129035
000370 7c ef 3d bf d0 39 67 3e d0 39 67 3e df 7b 6f bf
       -0.7419355 0.22580647 0.22580647 -0.9354839
000380 00 00 80 bf 00 00 80 bf 00 00 80 bf 7c ef 3d 3f
       -1.0 -1.0 -1.0 0.7419355
000390 d0 39 67 be ae b5 d6 be 10 21 04 bd 00 00 80 bf
       -0.22580647 -0.41935486 -0.032258093 -1.0
0003a0 9c 73 4e 3f 7c ef 3d 3f bc f7 5e 3f de 7b 6f 3f
       0.80645156 0.7419355 0.8709676 0.9354838
0003b0 bc f7 5e 3f 80 31 c6 3d d0 39 67 3e 38 e7 1c 3f
       0.8709676 0.0967741 0.22580647 0.6129031
0003c0 d0 39 67 3e d0 39 67 3e f0 bd f7 3e 90 31 c6 bd
       0.22580647 0.22580647 0.48387098 -0.09677422
0003d0 9c 73 4e 3f ac b5 d6 3e 48 29 25 3e ae b5 d6 be
       0.80645156 0.4193548 0.16129029 -0.41935486
0003e0 be f7 5e bf df 7b 6f bf 3a e7 1c bf bc f7 5e 3f
       -0.87096775 -0.9354839 -0.61290324 0.8709676
0003f0 df 7b 6f bf 00 00 80 bf df 7b 6f bf bc f7 5e 3f
       -0.9354839 -1.0 -0.9354839 0.8709676

fcs.1.bias f4 [100]
000000 5d 64 18 3f c7 01 71 3d b3 95 5e 3f 08 c9 51 be
       0.5952814 0.058839586 0.8694717 -0.20486844
000010 18 f9 7e bf b3 28 7f 3f 59 6b 04 bf 04 60 cb be
       -0.99598837 0.9967148 -0.517263 -0.39721692
000020 00 00 80 bf 02 0b 23 be ec 64 8b 3e 7a 3d 48 bf
       -1.0 -0.15922168 0.27225435 -0.78218806
000030 81 de 72 bd d9 52 a8 be ac f6 09 3f b6 d6 68 3f
       -0.059294228 -0.32875708 0.53892016 0.9095262
000040 50 ee ab bd 8b e2 9a 3d c1 11 c9 3e 4c f6 0e 3e
       -0.08395064 0.07562741 0.39271358 0.13961142
000050 c9 43 7f bf 2c 77 13 bd 2b 01 01 bd d7 c1 09 3e
       -0.99712807 -0.036002323 -0.031495254 0.1345285
000060 82 9c 1e bf b6 42 50 3e e3 90 7f bf aa cc 3a bd
       -0.6195756 0.20337948 -0.99830455 -0.04560534
000070 d7 b6 03 be 40 45 56 bd 4f ab 95 3e 7f 08 7f 3f
       -0.12862717 -0.052312136 0.2923226 0.9962234
000080 03 79 7f 3f 7f 82 98 3e 01 e9 01 3f a7 4c 23 3d
       0.99794024 0.2978706 0.5074616 0.039868023
000090 40 73 67 3f 20 2e 15 3e ed 1f 3a bd 26 bd 0a be
       0.9041023 0.14568377 -0.045440603 -0.13548717
0000a0 cc 66 17 be 5b 4f 1a 3f e7 b4 18 3e 5e 79 7b bf
       -0.14785308 0.60277337 0.14912759 -0.98232067
0000b0 6e 15 34 3f 6b 6d 9f 3d 55 99 85 bd e9 af 03 bf
       0.703452 0.07784542 -0.065233864 -0.5144029
0000c0 e2 60 38 be 66 2d 4e be 0f 5a 6b 3f 6b d5 53 bd
       -0.18005708 -0.20134506 0.91934294 -0.051717203
0000d0 1f 07 e0 3d f3 64 7f 3f 25 fc dc be 8b ba b7 3e
       0.10938858 0.9976341 -0.4316112 0.35884508
0000e0 03 54 b1 be d0 b4 e3 be 61 59 3f 3f 6c 90 92 3d
       -0.34634408 -0.44473886 0.74745756 0.071564525
0000f0 a4 14 84 be f4 d4 7f bf 67 e0 18 bf 08 62 0f bf
       -0.25796998 -0.99934316 -0.5971741 -0.5600896
000100 20 98 1a bd dd 6f 42 3f 8b 8e 03 bf 77 1e 23 3e
       -0.037742734 0.7595194 -0.5138938 0.1592959
000110 62 43 d6 be 80 93 14 3d 9f 37 af be 19 16 dd be
       -0.41848284 0.03627348 -0.34222123 -0.43180922
000120 e7 a8 7f bf cc 12 1c 3f 7c b6 0d bf 3f c5 5a 3f
       -0.998671 0.6096618 -0.55356574 0.85457224
000130 aa 7d 7f 3f 00 00 80 3f d2 60 ce 3d 22 6b cc be
       0.99801123 1.0 0.10077061 -0.39925486
000140 fa ac 1f 3f f5 1b 44 bf 8f 89 7f 3f cc ed 43 bd
       0.62373316 -0.7660516 0.9981927 -0.047834203
000150 d5 01 09 3e 13 11 19 3f 23 f2 b5 3e f0 0e 3e be
       0.13379605 0.5979168 0.35536298 -0.18560386
000160 cc ca fa be 4a 4b 02 3f ff 0e 7f bf 45 ad 50 3c
       -0.48982847 0.5089613 -0.9963226 0.012736623
000170 0f af 6a bf 26 2f 7a bf 78 19 88 3e 3e cb c8 be
       -0.9167337 -0.9772819 0.2658193 -0.3921756
000180 e3 2b ad be 2d 16 a1 3e b0 d6 7f bf d6 42 a6 be
       -0.33822545 0.3146223 -0.9993696 -0.32472867

fcs.2.weight f4 [10, 100]
000000 6c ad b5 be 2a a5 94 be d0 39 67 3e 80 31 c6 3d
       -0.35483873 -0.2903226 0.22580647 0.0967741
000010 7c ef 3d bf df 7b 6f bf 4c 29 25 be be f7 5e bf
       -0.7419355 -0.9354839 -0.16129035 -0.87096775
000020 be f7 5e bf 4c 29 25 be 00 21 04 3d 2a a5 94 be
       -0.87096775 -0.16129035 0.032258034 -0.2903226
000030 00 00 80 bf 00 00 80 bf 5b 6b 2d bf 2a a5 94 be
       -1.0 -1.0 -0.67741936 -0.2903226
000040 5b 6b 2d bf de 7b 6f 3f 68 ad b5 3e 10 21 04 bd
       -0.67741936 0.9354838 0.3548386 -0.032258093
000050 10 21 04 bd 90 31 c6 bd 5b 6b 2d bf 19 63 0c bf
       -0.032258093 -0.09677422 -0.67741936 -0.5483871
000060 9d 73 4e bf 7c ef 3d 3f d0 39 67 be 4c 29 25 be
       -0.8064516 0.7419355 -0.22580647 -0.16129035
000070 de 7b 6f 3f 7c ef 3d bf 18 63 0c 3f 10 21 04 bd
       0.9354838 -0.7419355 0.54838705 -0.032258093
000080 d0 39 67 be 9d 73 4e bf d0 39 67 be 4c 29 25 be
       -0.22580647 -0.8064516 -0.22580647 -0.16129035
000090 be f7 5e bf 10 21 04 bd 3a e7 1c bf f0 bd f7 be
       -0.87096775 -0.032258093 -0.61290324 -0.48387098
0000a0 bc f7 5e 3f 2a a5 94 be ac b5 d6 3e 2a a5 94 be
       0.8709676 -0.2903226 0.4193548 -0.2903226
0000b0 3a e7 1c bf 7c ef 3d 3f 00 00 80 3f 18 63 0c 3f
       -0.61290324 0.7419355 1.0 0.54838705
0000c0 be f7 5e bf 90 31 c6 bd de 7b 6f 3f ae b5 d6 be
       -0.87096775 -0.09677422 0.9354838 -0.41935486
0000d0 10 21 04 bd 7c ef 3d bf ae b5 d6 be 10 21 04 bd
       -0.032258093 -0.7419355 -0.41935486 -0.032258093
0000e0 f0 bd f7 3e 00 00 80 bf 5b 6b 2d bf 80 31 c6 3d
       0.48387098 -1.0 -0.67741936 0.0967741
0000f0 00 00 80 3f be f7 5e bf 7c ef 3d bf 18 63 0c 3f
       1.0 -0.87096775 -0.7419355 0.54838705
000100 7c ef 3d bf be f7 5e bf 5b 6b 2d bf d0 39 67 be
       -0.7419355 -0.87096775 -0.67741936 -0.22580647
000110 bc f7 5e 3f d0 39 67 be 2a a5 94 be 5a 6b 2d 3f
       0.8709676 -0.22580647 -0.2903226 0.6774193
000120 5b 6b 2d bf 28 a5 94 3e 9d 73 4e bf df 7b 6f bf
       -0.67741936 0.29032254 -0.8064516 -0.9354839
000130 6c ad b5 be d0 39 67 3e d0 39 67 be 9c 73 4e 3f
       -0.35483873 0.22580647 -0.22580647 0.80645156
000140 df 7b 6f bf 7c ef 3d bf d0 39 67 be 2a a5 94 be
       -0.9354839 -0.7419355 -0.22580647 -0.2903226
000150 2a a5 94 be 2a a5 94 be 00 00 80 bf 48 29 25 3e
       -0.2903226 -0.2903226 -1.0 0.16129029
000160 df 7b 6f bf bc f7 5e 3f be f7 5e bf 3a e7 1c bf
       -0.9354839 0.8709676 -0.87096775 -0.61290324
000170 7c ef 3d 3f 3a e7 1c bf ae b5 d6 be df 7b 6f bf
       0.7419355 -0.61290324 -0.41935486 -0.9354839
000180 3a e7 1c bf 6c ad b5 be 00 00 80 bf df 7b 6f bf
       -0.61290324 -0.35483873 -1.0 -0.9354839
000190 7c ef 3d bf 3a e7 1c bf df 7b 6f bf 6c ad b5 be
       -0.7419355 -0.61290324 -0.9354839 -0.35483873
0001a0 00 21 04 3d 00 00 80 bf 90 31 c6 bd 28 a5 94 3e
       0.032258034 -1.0 -0.09677422 0.29032254
0001b0 90 31 c6 bd 9d 73 4e bf 00 00 80 bf 68 ad b5 3e
       -0.09677422 -0.8064516 -1.0 0.3548386
0001c0 bc f7 5e 3f 6c ad b5 be df 7b 6f bf be f7 5e bf
       0.8709676 -0.35483873 -0.9354839 -0.87096775
0001d0 80 31 c6 3d 5b 6b 2d bf 19 63 0c bf 9d 73 4e bf
       0.0967741 -0.67741936 -0.5483871 -0.8064516
0001e0 28 a5 94 3e ae b5 d6 be 68 ad b5 3e d0 39 67 be
       0.29032254 -0.41935486 0.3548386 -0.22580647
0001f0 18 63 0c 3f df 7b 6f bf d0 39 67 3e be f7 5e bf
       0.54838705 -0.9354839 0.22580647 -0.87096775
000200 de 7b 6f 3f 6c ad b5 be ae b5 d6 be 7c ef 3d bf
       0.9354838 -0.35483873 -0.41935486 -0.7419355
000210 2a a5 94 be de 7b 6f 3f df 7b 6f bf 00 00 80 bf
       -0.2903226 0.9354838 -0.9354839 -1.0
000220 6c ad b5 be 00 00 80 bf d0 39 67 be df 7b 6f bf
       -0.35483873 -1.0 -0.22580647 -0.9354839
000230 3a e7 1c bf 3a e7 1c bf 00 00 80 bf 10 21 04 bd
       -0.61290324 -0.61290324 -1.0 -0.032258093
000240 6c ad b5 be 3a e7 1c bf be f7 5e bf 3a e7 1c bf
       -0.35483873 -0.61290324 -0.87096775 -0.61290324
000250 be f7 5e bf 68 ad b5 3e ac b5 d6 3e 28 a5 94 3e
       -0.87096775 0.3548386 0.4193548 0.29032254
000260 19 63 0c bf 80 31 c6 3d de 7b 6f 3f 3a e7 1c bf
       -0.5483871 0.0967741 0.9354838 -0.61290324
000270 19 63 0c bf df 7b 6f bf f0 bd f7 be 90 31 c6 bd
       -0.5483871 -0.9354839 -0.48387098 -0.09677422
000280 ae b5 d6 be de 7b 6f 3f 7c ef 3d 3f ae b5 d6 be
       -0.41935486 0.9354838 0.7419355 -0.41935486
000290 7c ef 3d bf 5b 6b 2d bf de 7b 6f 3f df 7b 6f bf
       -0.7419355 -0.67741936 0.9354838 -0.9354839
0002a0 5a 6b 2d 3f 4c 29 25 be 9d 73 4e bf 80 31 c6 3d
       0.6774193 -0.16129035 -0.8064516 0.0967741
0002b0 90 31 c6 bd 9d 73 4e bf 48 29 25 3e 48 29 25 3e
       -0.09677422 -0.8064516 0.16129029 0.16129029
0002c0 5b 6b 2d bf ae b5 d6 be f0 bd f7 3e 9d 73 4e bf
       -0.67741936 -0.41935486 0.48387098 -0.8064516
0002d0 be f7 5e bf 19 63 0c bf 00 00 80 bf 6c ad b5 be
       -0.87096775 -0.5483871 -1.0 -0.35483873
0002e0 de 7b 6f 3f 19 63 0c bf 4c 29 25 be 7c ef 3d bf
       0.9354838 -0.5483871 -0.16129035 -0.7419355
0002f0 00 00 80 bf 00 00 80 bf 18 63 0c 3f 9d 73 4e bf
       -1.0 -1.0 0.54838705 -0.8064516
000300 bc f7 5e 3f 2a a5 94 be 3a e7 1c bf de 7b 6f 3f
       0.8709676 -0.2903226 -0.61290324 0.9354838
000310 00 00 80 bf 6c ad b5 be 38 e7 1c 3f 00 21 04 3d
       -1.0 -0.35483873 0.6129031 0.032258034
000320 7c ef 3d bf 19 63 0c bf 00 21 04 3d 4c 29 25 be
       -0.7419355 -0.5483871 0.032258034 -0.16129035
000330 de 7b 6f 3f 2a a5 94 be be f7 5e bf 4c 29 25 be
       0.9354838 -0.2903226 -0.87096775 -0.16129035
000340 f0 bd f7 3e 7c ef 3d 3f df 7b 6f bf df 7b 6f bf
       0.48387098 0.7419355 -0.9354839 -0.9354839
000350 48 29 25 3e 5b 6b 2d bf f0 bd f7 be 00 00 80 bf
       0.16129029 -0.67741936 -0.48387098 -1.0
000360 48 29 25 3e 4c 29 25 be d0 39 67 be 90 31 c6 bd
       0.16129029 -0.16129035 -0.22580647 -0.09677422
000370 bc f7 5e 3f de 7b 6f 3f 7c ef 3d 3f 7c ef 3d 3f
       0.8709676 0.9354838 0.7419355 0.7419355
000380 5a 6b 2d 3f f0 bd f7 be 18 63 0c 3f 9c 73 4e 3f
       0.6774193 -0.48387098 0.54838705 0.80645156
000390 10 21 04 bd 9d 73 4e bf f0 bd f7 be df 7b 6f bf
       -0.032258093 -0.8064516 -0.48387098 -0.9354839
0003a0 d0 39 67 3e df 7b 6f bf 00 21 04 3d 4c 29 25 be
       0.22580647 -0.9354839 0.032258034 -0.16129035
0003b0 f0 bd f7 be 68 ad b5 3e bc f7 5e 3f be f7 5e bf
       -0.48387098 0.3548386 0.8709676 -0.87096775
0003c0 f0 bd f7 3e 10 21 04 bd df 7b 6f bf ac b5 d6 3e
       0.48387098 -0.032258093 -0.9354839 0.4193548
0003d0 5a 6b 2d 3f f0 bd f7 3e f0 bd f7 be de 7b 6f 3f
       0.6774193 0.48387098 -0.48387098 0.9354838
0003e0 90 31 c6 bd 80 31 c6 3d 00 21 04 3d 00 00 80 3f
       -0.09677422 0.0967741 0.032258034 1.0
0003f0 ae b5 d6 be 5b 6b 2d bf df 7b 6f bf 48 29 25 3e
       -0.41935486 -0.67741936 -0.9354839 0.16129029

fcs.2.bias f4 [10]
000000 b7 05 2c bf d6 d6 7f bf 11 f0 c2 3d fc b0 2e bf
       -0.6719622 -0.9993719 0.09518445 -0.68238807
000010 8d 08 7a bf 33 4b 3c be 9f bb 7f bf 46 7b 7f bf
       -0.976693 -0.18388061 -0.9989566 -0.99797475
000020 12 c8 7f 3f ac fb 7f 3f
       0.9991466 0.99993396

momentum_buffer f4 [100, 784]
000000 03 00 00 00 03 00 00 00 03 00 00 00 03 00 00 00
       4e-45 4e-45 4e-45 4e-45
000010 03 00 00 00 00 00 00 00 03 00 00 00 03 00 00 00
       4e-45 0.0 4e-45 4e-45
000020 03 00 00 00 03 00 00 80 2d 54 c8 2c 22 8a a2 2d
       4e-45 -4e-45 5.6936873e-12 1.8478611e-11
000030 e0 1b b1 2d 21 db 05 2d 4c 9a 09 b0 dd c4 17 b1
       2.013495e-11 7.608831e-12 -5.005958e-10 -2.2085296e-09
000040 df 96 5d b1 46 17 fb b0 0f 74 aa af 61 7a 33 18
       -3.2245493e-09 -1.8269268e-09 -3.1005284e-10 2.3196993e-24
000050 03 00 00 00 b3 25 00 80 a8 5a 00 80 3a 44 00 80
       4e-45 -1.3524e-41 -3.2521e-41 -2.4475e-41
000060 42 0f 00 80 03 00 00 80 03 00 00 80 03 00 00 80
       -5.473e-42 -4e-45 -4e-45 -4e-45
000070 03 00 00 80 03 00 00 00 03 00 00 80 03 00 00 80
       -4e-45 4e-45 -4e-45 -4e-45
000080 03 00 00 80 03 00 00 80 03 00 00 80 3c a6 f0 8e
       -4e-45 -4e-45 -4e-45 -5.9324646e-30
000090 af 31 07 b4 f0 bb e5 b4 eb a8 6e b5 10 f7 be b5
       -1.259093e-07 -4.2791316e-07 -8.8907717e-07 -1.4228008e-06
0000a0 e6 29 e2 b5 38 4d 7a b8 41 3d 78 ba ab ad 53 bb
       -1.6850506e-06 -5.967656e-05 -0.0009469577 -0.003229956
0000b0 68 18 b1 bb a8 3b ca bb fc a7 cc bb 1e 38 a8 bb
       -0.005404521 -0.0061716624 -0.0062456112 -0.005133643
0000c0 53 27 1f bb 10 e7 e8 b9 57 b9 55 b7 69 ae f3 30
       -0.0024284914 -0.00044422643 -1.2738942e-05 1.7730147e-09
0000d0 46 74 22 30 77 61 d6 1a 5e b4 d9 19 b2 a6 ed 8b
       5.910049e-10 8.866579e-23 2.2510124e-23 -9.1539895e-32
0000e0 03 00 00 80 03 00 00 80 03 00 00 80 6a 89 db 97
       -4e-45 -4e-45 -4e-45 -1.4187231e-24
0000f0 77 02 82 99 7a ac 22 9a 72 47 dd b7 23 6c 6d b9
       -1.344268e-23 -3.364014e-23 -2.6378522e-05 -0.00022642365
000100 39 c7 ee b9 0b ff 45 b9 ff 7c ee 39 9d 29 44 3a
       -0.0004554333 -0.00018882395 0.00045488027 0.00074830075
000110 07 81 01 3a d0 a6 6f ba 2a a1 ca bb e7 93 ce bc
       0.0004940186 -0.00091419835 -0.006183763 -0.02521701
000120 29 98 28 bd 90 c9 32 bd 9f 09 37 bd 12 4d 31 bd
       -0.041160736 -0.043649256 -0.04468691 -0.04328639
000130 f7 01 93 bc 41 af 8a bb b7 63 32 ba e0 28 13 b7
       -0.017945273 -0.0042323177 -0.000680502 -8.7714e-06
000140 46 c0 8d 34 2a 4d 0d 2e e8 dc a2 1a 7d c9 89 8c
       2.6403194e-07 3.2128224e-11 6.735852e-23 -2.1229459e-31
000150 03 00 00 80 03 00 00 80 30 30 6c 92 2a 51 16 99
       -4e-45 -4e-45 -7.4527865e-28 -7.771209e-24
000160 40 cc 54 34 c4 68 98 35 76 a1 50 b8 d9 a9 6c ba
       1.9818344e-07 1.1355373e-06 -4.9741437e-05 -0.0009027995
000170 83 b1 83 bb 95 98 1e bb d1 15 31 3b 70 89 a8 3b
       -0.004018964 -0.0024199833 0.002702106 0.005143337
000180 70 c3 1a 3b 6a 15 8f bb 4f ac e5 bc a9 fc 36 bd
       0.0023615025 -0.0043665664 -0.028036265 -0.04467455
000190 0e fb 49 bd 9d 1d 52 bd 5c e1 6d bd 12 ba 7b bd
       -0.04931169 -0.051297773 -0.058076248 -0.061456747
0001a0 9a 7f 56 bd 98 58 b0 bc a3 8b 39 bb 29 5b 01 b9
       -0.052367784 -0.02152662 -0.002831199 -0.00012336358
0001b0 e9 34 6e b8 0c 74 b9 b7 3f a1 0b b6 43 41 53 2f
       -5.67929e-05 -2.2107757e-05 -2.0806472e-06 1.9213524e-10
0001c0 03 00 00 80 03 00 00 00 44 21 f9 92 d4 14 82 99
       -4e-45 4e-45 -1.572231e-27 -1.3450097e-23
0001d0 8c 4e 77 35 89 cc 87 36 eb 36 80 b7 b6 a0 91 b9
       9.212897e-07 4.0471245e-06 -1.5284362e-05 -0.00027776294
0001e0 e6 df ed ba 6a 29 d4 bb c5 cc 84 bb f4 27 7b 38
       -0.0018148392 -0.0064746635 -0.0040527307 5.9880273e-05
0001f0 29 51 13 bb 90 f7 aa bc 00 a0 3c bd 04 89 5c bd
       -0.0022478795 -0.02087 -0.046051025 -0.053841606
000200 ea db 60 bd 4f f3 73 bd ab bc 87 bd 99 bb 88 bd
       -0.054897226 -0.05955821 -0.066277824 -0.066764064
000210 52 ed 82 bd ea 46 1a bd 9e 45 c1 bb ab bb 30 ba
       -0.063929215 -0.037665285 -0.0058981916 -0.0006741832
000220 ed 4d e4 b9 39 6e d4 b8 98 99 58 b7 c5 6a 01 30
       -0.00043545608 -0.00010129478 -1.2910365e-05 4.7081655e-10
000230 03 00 00 80 03 00 00 00 4d fa 8f 92 4f 15 1a 99
       -4e-45 4e-45 -9.086273e-28 -7.965917e-24
000240 0e 5e 1c 36 a9 22 d1 35 9f fc a2 b8 64 76 1e b9
       2.3300558e-06 1.5581801e-06 -7.771816e-05 -0.00015112158
000250 97 4d 74 ba 51 dc 97 bb 27 87 6e bb 3d 39 ed b8
       -0.0009319423 -0.004634418 -0.0036396475 -0.00011311702
000260 2b 4f a5 bb 1a c2 ff bc 8f 21 6e bd d3 56 8c bd
       -0.005044838 -0.031220485 -0.058137473 -0.06852498
000270 68 9a 96 bd df dc 99 bd 96 c1 9e bd 42 c2 9c bd
       -0.073536694 -0.07512831 -0.07751767 -0.07654239
000280 50 be 94 bd fe 1d 30 bd 56 12 07 bc ff 51 93 ba
       -0.07262862 -0.042997353 -0.008244118 -0.0011239647
000290 48 ca aa b9 9e 08 78 b9 cd 76 e5 b7 b0 08 f1 2f
       -0.00032575638 -0.00023654333 -2.7354248e-05 4.3843817e-10
0002a0 03 00 00 00 3d 50 19 83 b1 11 cf 90 c5 ab 2e 29
       4e-45 -4.505477e-37 -8.167436e-29 3.8784748e-14
0002b0 9b 20 82 36 0e 1e 0c 37 27 f1 46 b9 fa 91 cb b9
       3.8780977e-06 8.351648e-06 -0.00018972588 -0.00038827938
0002c0 11 e2 1a ba 22 ee 48 ba 64 f9 41 ba 9b 5f 21 3b
       -0.00059083203 -0.0007664879 -0.0007399528 0.0024623636
0002d0 62 51 d7 bb 05 0e 21 bd e2 1c 92 bd d7 86 ad bd
       -0.006570981 -0.03932001 -0.07134415 -0.08472984
0002e0 58 15 b4 bd 48 81 9d bd 3c dc 74 bd 0a 4b 66 bd
       -0.087931335 -0.07690674 -0.059780344 -0.056223907
0002f0 1c 21 54 bd 6f 96 0a bd 94 1a 62 bc 26 e9 55 bb
       -0.051789388 -0.03383487 -0.013800282 -0.0032640188
000300 b2 f6 2f ba 23 c5 58 b9 13 e5 cc b7 cf d7 1f 2e
       -0.00067124807 -0.00020672804 -2.4425366e-05 3.634409e-11
000310 03 00 00 00 9b fa e6 84 fa ef 25 29 82 9c e7 ab
       4e-45 -5.4302885e-36 3.6845506e-14 -1.6456977e-12
000320 d0 56 7c 36 3e 45 cd 37 6f f8 93 b6 0d bb 56 b9
       3.7601458e-06 2.4470148e-05 -4.409863e-06 -0.00020478312
000330 19 10 83 b9 61 2d a4 b9 a1 74 3c ba 3d 53 2c bb
       -0.0002499826 -0.00031314327 -0.000718901 -0.002629473
000340 09 74 98 bc 52 2d 61 bd 5e a2 9e bd 2a 32 b8 bd
       -0.018610017 -0.05497486 -0.07745813 -0.08993943
000350 05 d9 b0 bd 78 a8 98 bd bf 52 32 bd 1e a3 1a bd
       -0.08635143 -0.07454008 -0.043535944 -0.037753217
000360 47 e9 1c bd 9a 1a 00 bd dd af 76 bc 13 9a f2 bb
       -0.038308408 -0.03127537 -0.0150565775 -0.007403621
000370 69 2a 88 ba 0d 20 23 b8 fc d8 06 b7 db a1 b0 2b
       -0.0010388616 -3.8892078e-05 -8.037543e-06 1.2550476e-12
000380 03 00 00 00 bc 86 6c 85 0f 80 97 30 c7 af 85 31
       4e-45 -1.11214135e-35 1.1023092e-09 3.890793e-09
000390 2c ea f0 35 c8 09 17 38 f7 71 6e 39 c7 8c 4b 3a
       1.7949546e-06 3.6010315e-05 0.00022739904 0.0007764813
0003a0 6e 17 a4 3a e5 91 ca 3a 65 83 78 3a 24 39 12 bb
       0.001251919 0.0015454857 0.00094800285 -0.002231189
0003b0 96 3b 8a bc ae 86 61 bd 52 4a a2 bd d6 f1 a9 bd
       -0.016874116 -0.05506008 -0.07924332 -0.0829808
0003c0 53 eb a4 bd 45 2e 87 bd 08 a1 1f bd ff 13 fa bc
       -0.08052697 -0.06600622 -0.03897193 -0.030527113
0003d0 25 66 09 bd 5d e7 e0 bc 56 ae 56 bc d3 58 13 bc
       -0.03354468 -0.027454073 -0.013103088 -0.008993345
0003e0 5b 1f 7b ba 6f 4f a6 b6 16 ca 0f b4 b7 e2 b1 0e
       -0.00095795625 -4.956433e-06 -1.3391431e-07 4.3852187e-30
0003f0 03 00 00 80 b4 e9 24 85 74 92 1d 33 40 05 10 34
       -4e-45 -7.7541674e-36 3.668761e-08 1.3412955e-07

momentum_buffer f4 [100]
000000 a8 c4 a9 bd 74 93 27 3d 64 b9 11 3e ec 23 d0 3d
       -0.08289462 0.040912107 0.14230877 0.101631016
000010 56 58 26 3c 63 36 b1 3d 24 8e 03 be dd d3 f8 bc
       0.010152897 0.086529516 -0.12847191 -0.030374462
000020 5e e1 16 3e 0e fe 8b 3c e9 dc c7 bc 50 89 88 3d
       0.14734408 0.017088916 -0.02439733 0.06666815
000030 70 43 43 bd 34 3d a9 bd fc 47 10 be a6 c6 10 bd
       -0.047671735 -0.08263627 -0.1408996 -0.035345696
000040 a8 2f 1d bd b9 93 1a bd 90 5b 80 3b bb 3f 04 3d
       -0.038375527 -0.037738536 0.003917165 0.03228734
000050 f2 6b 91 3b 22 5a 7f bc 71 94 3d 3d 5c a7 3a bd
       0.004437917 -0.015585454 0.046284143 -0.045569763
000060 24 2c 14 bd 8c 4e 54 3c 03 df 88 bc 26 c8 ee 3d
       -0.03617491 0.01295818 -0.016707903 0.11659269
000070 46 ef b9 3c 0e 50 8e bc 60 a0 ae bd e8 dd d0 bc
       0.022697102 -0.017372157 -0.08526683 -0.025496438
000080 fc 90 8f bc 7d 22 91 3d 31 83 1f bd d0 5c 29 bc
       -0.017525189 0.07086656 -0.038943473 -0.01033707
000090 44 fc 5a 3c 38 de e9 bd 79 41 ae 3d 87 61 14 3e
       0.013365809 -0.11419338 0.08508582 0.14490329
0000a0 85 d8 b0 bb b2 4e ae 3b e6 50 b2 bd c1 44 9c 3d
       -0.005396905 0.00531944 -0.087068364 0.07630301
0000b0 cf a6 a8 3d 8c 3d 84 3d 20 08 7e 3c 3a 84 a7 bd
       0.08234941 0.06457052 0.015504867 -0.08179517
0000c0 62 0a b1 bd 2f 0b 34 3d 2e 4e 00 3e 47 59 14 bd
       -0.086445585 0.043955978 0.12529823 -0.036217954
0000d0 36 24 f5 bd f0 aa a7 bb fb 79 02 bd 65 18 a7 bd
       -0.11969797 -0.005116813 -0.03185461 -0.0815895
0000e0 7d 1e 15 be be 68 b2 bd 3f 0d 1d bd f6 ba 1b bd
       -0.14562412 -0.08711384 -0.03834271 -0.038020097
0000f0 91 6a 17 be 18 16 81 bd 28 ea 91 bc 05 e3 12 3d
       -0.14786746 -0.06303042 -0.01781185 0.035861034
000100 8d dc f4 3d d8 b0 06 3a c5 ae ea 3c 78 f4 d2 3c
       0.11956129 0.0005138046 0.02864779 0.025751337
000110 6b 8a 4e bc 44 d3 04 bd 28 ad e5 bd f5 c5 45 be
       -0.012606244 -0.03242804 -0.112146676 -0.19313796
000120 91 37 63 bc b7 d3 ae 3c 87 95 b9 bc 0a 9a 18 3e
       -0.0138682285 0.021341188 -0.022654308 0.14902511
000130 fd 2c 9e 3d db 0e d2 bd 74 30 a1 bd 25 05 7e 3d
       0.077234246 -0.1025674 -0.0787057 0.062016625
000140 d0 44 e0 bd cf 48 bf bd cb 91 39 bd 63 85 d4 3c
       -0.10950625 -0.09340059 -0.045305055 0.02594251
000150 28 ad 75 3d b3 4b 1b bd 91 ef 05 3e 7f 64 d7 3d
       0.059979588 -0.03791399 0.13079669 0.10517215
000160 5b 73 11 3d 64 f5 34 bd 06 b2 b7 3d 81 50 db 3d
       0.035510402 -0.044179335 0.08969502 0.10708714
000170 16 02 7a 3d 7f 14 9c bd bb b5 f6 bc dd 08 07 3d
       0.061037146 -0.07621097 -0.030115953 0.032967437
000180 25 96 b5 bb c4 ee f7 bc bd 5a d8 3d 03 12 81 bd
       -0.0055415803 -0.03026522 0.10564182 -0.063022636

momentum_buffer f4 [100, 100]
000000 93 64 63 39 a1 70 8e 3c a2 d3 61 3c b5 5a a9 3c
       0.00021685874 0.01738769 0.013783367 0.020673135
000010 a6 c9 22 bd 73 52 3d 3e 40 51 1c 3d 5e 4e 44 3d
       -0.03974309 0.18488483 0.038163424 0.0479263
000020 f1 9b 4c bd 7f 30 30 3d 3c 01 39 3c da 99 ab 3d
       -0.049953405 0.043015 0.011291798 0.08378954
000030 f6 dc c1 bc df fa 88 bd 44 b9 34 be 42 e7 f7 3d
       -0.023664933 -0.06688475 -0.17648798 0.12104656
000040 59 b8 ee 3d 39 63 2c bc e4 e3 0e 3d c3 92 57 3d
       0.11656255 -0.010521703 0.034885302 0.052630197
000050 2e d6 19 be 2c 94 95 3c 6a 21 50 bd ec 37 d1 3c
       -0.1502311 0.01825913 -0.050813116 0.025539361
000060 e0 a6 d3 bc 3b b7 ba 3d 65 ba 3e 3a 3a 02 08 3c
       -0.025836408 0.0911698 0.00072757 0.008301312
000070 3a 40 59 3b 9a 54 17 3d 91 73 04 3e e7 80 90 3b
       0.0033149854 0.036945917 0.1293471 0.0044098976
000080 f0 2d ac 3d f8 67 d6 3c 50 ca a2 bd 9f 51 ba 3d
       0.084071994 0.026172623 -0.07948744 0.09097599
000090 58 42 5b 3d bf d8 93 3d 6e 45 c4 bd e7 c7 44 3e
       0.053530067 0.072190754 -0.09583555 0.19216882
0000a0 28 c2 30 3c 18 cc b6 ba c6 ab 48 bc 6f 47 6e 3e
       0.010788478 -0.0013946323 -0.012247985 0.23269437
0000b0 1d 93 90 be 2f 62 15 3e c3 f0 07 be 11 33 42 3e
       -0.2823724 0.14588235 -0.13275437 0.18964793
0000c0 e3 57 fa bc 38 0e 49 3e 62 83 06 3d 19 dc 02 3e
       -0.030559486 0.1963433 0.03284014 0.12779273
0000d0 be 48 16 3a d8 3d b7 3d 13 7c 7e 3c f7 a4 e5 3d
       0.00057328853 0.08947343 0.015532511 0.11213105
0000e0 e0 c6 e2 bc 98 9a 2f 3d 2a 39 29 3c e7 3c 85 3a
       -0.027682722 0.04287204 0.01032857 0.0010165245
0000f0 80 dd 85 3d 2f 4c 35 3c 36 4d bd 3d 29 f0 e8 3d
       0.065363884 0.011065527 0.092432424 0.11373932
000100 6d 87 86 ba 4d 3b 6a 39 7d 75 b4 bc 66 67 16 3d
       -0.0010263749 0.0002233807 -0.022028679 0.036719702
000110 a6 78 6b 3c c9 51 38 be 43 d7 15 be cd 78 98 3d
       0.014372027 -0.17999949 -0.14632897 0.07444916
000120 a2 12 21 3c d2 e4 25 3c c0 74 9f 3c 0d 71 a8 3d
       0.009831103 0.010125356 0.01946485 0.08224688
000130 e6 48 84 bd e3 91 7c 3d e9 00 aa 3a 3e e9 e9 3c
       -0.06459217 0.061662566 0.0012970242 0.028553601
000140 48 ac b2 3d d3 dd 8d 3d 15 01 6a 39 8b 24 41 be
       0.08724266 0.06927075 0.00022316382 -0.18861596
000150 43 ad 19 3d dd 28 86 3d a2 c5 6f 3d f7 23 6f 3c
       0.03751875 0.06550763 0.058538087 0.014595977
000160 eb a5 fe bd 93 dd 0a 3d 3a 31 e2 3c 62 9a 64 bd
       -0.1243399 0.033902716 0.027611364 -0.055811293
000170 03 35 62 3d 49 7b f8 bd 15 43 4f bc 76 5a 34 3d
       0.055226337 -0.1213289 -0.012650271 0.044031583
000180 d3 9c 09 3e ba 3c 77 bd 57 b1 82 bd ba 04 35 3d
       0.1343873 -0.060360648 -0.06381481 0.04419396
000190 35 0e d7 38 75 cb 0e 3d 0a 3f 34 bd 23 5c 9d bc
       0.00010254645 0.034862 -0.04400543 -0.019208973
0001a0 d8 95 ce bb 1e f5 e2 bc 93 c1 f7 3c f8 73 8b bc
       -0.006304484 -0.027704772 0.03024367 -0.017023072
0001b0 70 ce 93 b9 25 fe 49 3d c4 8a 6e 3b cd be 9f bc
       -0.00028191833 0.049314637 0.0036398629 -0.01950016
0001c0 30 22 46 3d fa 29 43 ba 95 e0 a2 bd 5e 9b b3 3c
       0.048372447 -0.00074449147 -0.07952992 0.02192467
0001d0 ca 76 66 3a 4a f7 e4 bb 34 72 b3 3c 9d 49 77 bb
       0.00087915047 -0.006987487 0.021905042 -0.0037733086
0001e0 45 8b 5a 3d 7a 18 72 3c 51 06 07 bd 26 5b 0a 3b
       0.053355474 0.0147763435 -0.03296501 0.0021111458
0001f0 72 35 6b bd 99 89 a3 3c 58 45 18 3b 66 68 2d 3c
       -0.057424016 0.019963073 0.0023234691 0.010583973
000200 c7 8b cd 3c dd 84 60 3c f9 0f ae 3d ac cc af bc
       0.025091065 0.013703552 0.0849914 -0.0214599
000210 8a b5 86 3b 2d d4 3b 3d 08 5a 18 bc bd 2f 03 3c
       0.0041109966 0.045856643 -0.009298809 0.008006987
000220 35 14 ce bb 0c b7 89 3b b2 c5 2c bc c6 a5 3b 3d
       -0.00628903 0.004202729 -0.010545181 0.04581239
000230 41 21 04 b6 4f 37 c6 3c 8a 0f 4f bd 0c b8 e4 3c
       -1.968889e-06 0.024196295 -0.05055193 0.027919792
000240 ba 65 f6 bc 22 60 f3 3c 76 68 1f 3c eb 1f 1c be
       -0.030077804 0.029708926 0.009729495 -0.1524655
000250 5a cd 7a 3c c4 76 d8 3c 88 c6 f8 3c 75 18 19 3d
       0.015307749 0.02642382 0.030368105 0.03737684
000260 a5 93 f1 3b 30 a1 5a 3c bf 2a 08 3d 0f f4 6c bc
       0.007372337 0.013344094 0.03324389 -0.014462485
000270 fd 3f c6 3c 5b 6f 9e bc 88 8a 2b bd aa 2c a1 3c
       0.024200434 -0.019340208 -0.04188016 0.019674618
000280 5f 35 ba bc 0e 02 48 bc 4c ed d7 bc 4f 3b af bd
       -0.022730527 -0.012207521 -0.02635827 -0.08556234
000290 f0 80 b6 3a ee 03 05 b6 9e e3 5c 3d a9 3e ed 3b
       0.0013923924 -1.9820832e-06 0.05392801 0.0072401357
0002a0 15 73 10 bc b3 e7 1b bd 36 c3 e8 3b 19 b3 24 bd
       -0.0088165 -0.038062762 0.007103349 -0.040209863
0002b0 b5 91 05 bd 06 6e bc bc 15 2b 43 3d 6f 45 2d 3c
       -0.03260966 -0.023001682 0.047648508 0.010575636
0002c0 e7 b5 dc b9 42 e7 d6 bc 3c 52 0f bc 90 f5 a9 bc
       -0.00042097198 -0.02623332 -0.008747634 -0.020746976
0002d0 e3 b9 01 bd 44 a9 be 3c 1a 39 3e 39 68 4e 04 bd
       -0.031671416 0.023274072 0.00018141084 -0.032301337
0002e0 ba 65 e6 bb 04 25 6a b7 a8 d2 10 3d e5 6e 2a bc
       -0.0070311697 -1.3956105e-05 0.035357147 -0.010402416
0002f0 89 cf 14 3d 81 2d 80 3d 63 ba 8d 3c 4c 6c 6b b8
       0.036330733 0.06258679 0.01730079 -5.6129225e-05
000300 7d cc 1a 3d 05 8e 0b bd c7 db bf 3c 15 69 1c 3c
       0.03779267 -0.034070987 0.023420228 0.009546538
000310 4c 98 22 bd 93 31 ae bb e2 47 02 bd 44 a1 06 3d
       -0.039696023 -0.0053159683 -0.031806834 0.03286864
000320 77 36 dc bc 1f 6b 8f 3c 1a b1 f4 bc 01 9d 47 3b
       -0.02688144 0.017507134 -0.029869605 0.0030458572
000330 df 25 87 ba b5 da 4a bd 28 58 c7 3c 17 51 07 3b
       -0.0010310969 -0.04952498 0.024334028 0.0020647699
000340 83 fd 8f 3c 9e ab 60 bd e3 2d e6 b9 fd 4b 66 bd
       0.017576938 -0.054851167 -0.00043903207 -0.05622481
000350 fe bd 65 3d 08 45 34 3d eb 5b 37 bc 6c 5d 4b 3b
       0.056089394 0.044011146 -0.011191349 0.0031031026
000360 8e 04 91 bc b0 53 9e bb 00 25 b5 3d 50 9a 5e bd
       -0.017702367 -0.0048317537 0.08844948 -0.054346383
000370 1d 44 56 3d ba de 4e bd e2 7a db bb 97 c0 88 bc
       0.05231105 -0.050505377 -0.0066979984 -0.016693396
000380 8b c2 87 bb e4 39 25 bb c5 6a b5 39 26 66 cc bc
       -0.0041430644 -0.0025211507 0.0003460256 -0.024951052
000390 01 31 2a bc 16 b4 0b 3c 1b f1 6e 3d 10 49 f9 3c
       -0.01038766 0.008526823 0.058335405 0.030430347
0003a0 e1 a8 b0 3d 2f 2b b4 bd 8b 4e 6a 3d 67 c8 a5 3b
       0.08625961 -0.08797299 0.05720381 0.00505929
0003b0 40 92 5c 3d 6c 8f e9 bc c5 cc 8c 3c 67 d0 00 3e
       0.053850412 -0.028510772 0.017187485 0.12579499
0003c0 65 ca ad 3c b7 63 b1 3c f4 75 2a 3b ba e0 f2 bd
       0.021214673 0.021653993 0.0026010247 -0.118592694
0003d0 c0 48 22 3c 2a 75 0e 3d f3 3b d3 3c ea 6f 30 3d
       0.00990504 0.034779705 0.025785422 0.04307548
0003e0 12 06 9c 38 da 5e f4 3a 45 df 92 3d 82 c8 5f bd
       7.43979e-05 0.0018643991 0.071714915 -0.05463458
0003f0 7f d8 b5 3c 72 12 63 3c 9b 64 d5 3b 68 44 29 bc
       0.02219796 0.013859378 0.0065122372 -0.010331251

momentum_buffer f4 [100]
000000 cb 4d 2c 3c d7 30 56 3a 47 b3 8a 3b 83 d2 d0 bb
       0.010516594 0.000817073 0.0042327973 -0.006372751
000010 3f 41 80 3c 0e f3 34 3c 69 36 b9 3a 9e 6b 4c bc
       0.015656112 0.011044277 0.0014130595 -0.01247683
000020 70 3f b4 3c d6 68 a7 bb 15 4d b9 bb f0 35 b5 3c
       0.022002906 -0.005108933 -0.005654941 0.022120446
000030 5d 3a 16 3c b6 24 ae bb 45 d7 11 3a f0 48 c5 bb
       0.009169188 -0.005314435 0.00055633887 -0.0060206577
000040 04 45 9a bc a0 a2 ad ba 99 48 d6 bb 87 23 54 3c
       -0.018831737 -0.0013247319 -0.006539416 0.0129479235
000050 49 6e 39 bb 54 4b b3 3a 2f 5f fa 3a 48 80 83 3c
       -0.0028294495 0.0013679066 0.0019101853 0.01605238
000060 40 11 b4 3a 09 ba a9 3a 5b 71 55 3c 8e 1b cf 3b
       0.0013738051 0.001294912 0.013027514 0.0063204234
000070 e2 72 b8 3b fe 30 ad ba 0a 47 23 bc 5a 17 e1 ba
       0.0056289295 -0.0013213453 -0.0099656675 -0.0017173097
000080 61 65 31 bc 02 ce 07 3c e5 02 c8 3b 8a 05 6a b6
       -0.010827393 0.008288862 0.0061038607 -3.4871941e-06
000090 99 cd 56 3b 0c 2e 5b 3b 6d 0c bd 3b 01 c6 c1 b9
       0.0032776354 0.0033444194 0.0057693035 -0.00036959353
0000a0 cf 13 1a 3c 3c 92 fe 3c 47 e2 af 3b af 4a 6d 3c
       0.009404137 0.03107559 0.0053675505 0.014483138
0000b0 a5 e7 1d 3c 13 f4 d4 37 44 e0 92 bc 3a 5f 35 b9
       0.009637748 2.5386025e-05 -0.017929204 -0.0001729698
0000c0 f7 70 22 3c 2c a2 ae 3b 64 21 12 bd 86 bf 0b 3c
       0.009914628 0.005329391 -0.035676375 0.008529549
0000d0 5a cd 0d 3c eb c0 ba bc 89 f3 19 bc 49 bf d6 bb
       0.008654917 -0.022797069 -0.009396442 -0.0065535647
0000e0 11 d5 b3 3a c3 82 94 3b 4f 70 50 3b 3b 12 b5 bc
       0.0013720115 0.0045321896 0.0031805222 -0.02210342
0000f0 1f 9d 8d bb 51 66 f0 3b be 08 a0 bc d5 27 b0 3b
       -0.004321709 0.007336416 -0.019535419 0.005375842
000100 4d 35 7a bc e9 2a d9 b8 51 1f e8 3b 69 1f 7f bc
       -0.015271497 -0.00010355359 0.0070838113 -0.015571454
000110 91 02 69 bc 35 6a 25 bb 7c f7 b0 b9 bc 20 0a bc
       -0.014221803 -0.0025240306 -0.00033753726 -0.008430656
000120 76 0b 32 3b a0 5d 94 bc 22 a9 8b 3b aa 45 61 bb
       0.0027167476 -0.01811105 0.0042621056 -0.0034373798
000130 19 ad 76 3a 4b 95 ea bc 96 ea 81 bc 8e 8d 42 ba
       0.0009409949 -0.028635642 -0.01585893 -0.0007421606
000140 72 70 8e bc 19 8b d7 3c 41 93 de ba a0 a4 d6 bc
       -0.017387602 0.026311444 -0.0016981141 -0.026201546
000150 82 7f b9 3b 15 8e 21 3b 91 d6 4a 3c d0 e8 94 bc
       0.005660952 0.0024651338 0.012380258 -0.01817742
000160 01 8a 0b 3d 73 b0 92 ba fd 13 13 bc de 05 62 3b
       0.034067158 -0.0011191502 -0.008976934 0.003448836
000170 38 49 3d 3b 69 29 ac bc 8e 86 14 bc 2d e0 21 3c
       0.0028882753 -0.02101584 -0.009065283 0.009880108
000180 f6 b2 b6 ba 5c 77 d4 bb ca e4 d9 bc 88 91 24 bc
       -0.0013938833 -0.0064839553 -0.026598353 -0.010044463
